data.pth (torch, 26263 bytes, 6 tensors)

l1.weight f4 [8, 504]
000000 d2 f6 f3 3e a6 18 12 3e 73 ca dc 3f 84 18 94 3f
       0.47649246 0.14267215 1.7249283 1.1569982
000010 ad 6f 8c 3d d3 4f 84 3e 4a 76 a1 3e b3 18 56 3f
       0.06857238 0.2584215 0.3153556 0.8363144
000020 51 e8 4b 3f f9 8b 16 bc c6 3f ab 3e f5 da 2c 3f
       0.7965136 -0.0091886455 0.33447093 0.675216
000030 ed 73 af bd 8e ed 80 3d 54 75 ea 3c 9b 2c d2 3c
       -0.08567033 0.0629531 0.0286204 0.025656035
000040 a8 76 93 3d 2b 6a a3 3d 67 6e 9d bd 9c aa c3 3e
       0.07200366 0.07979234 -0.07687073 0.38216102
000050 2f 94 f8 3d 6a d4 47 3f e3 4c 15 3d 60 c7 97 3e
       0.12137639 0.78058493 0.036450278 0.296443
000060 f8 89 93 3d c4 eb d9 bc b4 e2 c4 3c f2 10 98 3e
       0.0720405 -0.02660168 0.024033882 0.29700428
000070 4f de 02 bf 76 24 ff 3c a2 13 82 3f 84 83 84 3e
       -0.51120466 0.031145316 1.0162241 0.25881588
000080 e8 3d 42 bc f0 37 3b 3d 1e 80 89 3f 53 f7 9b 3d
       -0.01185558 0.045707643 1.0742223 0.07615533
000090 78 4b c7 3e e4 26 74 3d 6e 84 8e 3e d6 82 0d bc
       0.38924766 0.0596074 0.2783541 -0.008637151
0000a0 da 6f 6c be 15 69 4c 3e c0 3a ad 3d 9d d5 48 3c
       -0.23089543 0.1996196 0.08458471 0.012257961
0000b0 16 a9 d9 3d ba e1 84 3e 12 f6 85 3e 60 f0 2c 3f
       0.10627954 0.25953466 0.261643 0.67554283
0000c0 a8 a4 9c 3d 47 8e 9a 3e a7 c6 1f 3e 83 77 fb 3d
       0.07648593 0.30186674 0.15603124 0.122786544
0000d0 d4 6e 8e 3f 29 ec 65 3d c3 9d be 3e f5 08 d3 3d
       1.1127572 0.056133423 0.37229738 0.10304443
0000e0 3b 49 3c be 08 f1 71 3e 6f c7 88 be c5 67 e4 3f
       -0.1838731 0.23627102 -0.26714656 1.7844168
0000f0 8a e5 0d bb 03 75 8b 3f 5e a4 f0 3f 91 3e a5 3f
       -0.0021651709 1.0895084 1.8800161 1.2909719
000100 62 0c e6 3f 28 b5 f5 3c 25 ec 0f bd 58 31 14 3d
       1.7972529 0.029993609 -0.035137314 0.03617987
000110 7c d5 c9 bc f7 58 a8 3d ad c1 a2 3d 05 fc 89 bd
       -0.02463793 0.08220094 0.07947097 -0.06737522
000120 82 78 78 be 26 d0 b1 3e 3f a9 dc 3d ce 5a 11 3f
       -0.2426472 0.34729117 0.10774469 0.5677918
000130 0f 68 e6 3d 92 f3 72 3f 20 7f 14 3f 4c 36 2d 3f
       0.11250316 0.9490291 0.5800648 0.67660975
000140 5c e8 e7 3d c2 89 fb 3c b5 38 ab bd 83 8b 5f 3e
       0.11323616 0.030705336 -0.083604254 0.21830563
000150 f4 16 a9 3d 63 55 05 3e 59 1f 0a 3e 67 bc 04 3e
       0.08256331 0.13020854 0.1348852 0.12962495
000160 af 69 01 3e 0f fd 0f 3f 2d a9 f6 3e 6f 7a 07 3e
       0.12637971 0.5624551 0.48175946 0.13230298
000170 43 ee 5c 3e 6a 24 2d 3f 38 6a 73 be 27 8c 68 3e
       0.21575265 0.6763369 -0.23770988 0.22709714
000180 3e ae 9c 3e 59 ea 3f 3f 65 d0 a5 bd a5 76 23 3e
       0.30601686 0.7496696 -0.08096389 0.15963228
000190 75 40 10 3d e1 1a f8 3e 5e 59 0e 3f 49 4b c6 bd
       0.03521772 0.48458007 0.55605114 -0.09682328
0001a0 3c 78 48 3f cb d2 f7 3d 66 46 88 3e ae e5 c3 3c
       0.78308463 0.121007524 0.2661621 0.02391323
0001b0 ab 84 41 3d e0 95 f3 3d af ca e8 3f aa 74 75 3d
       0.047245663 0.11893821 1.8186854 0.059925713
0001c0 36 89 69 bd 4e 5b 72 3d 23 5e 5a 3f 30 be f5 bc
       -0.05701562 0.059169106 0.8529989 -0.029997915
0001d0 42 58 07 3d a7 91 83 3e fc 1a ba 3e f4 61 30 3e
       0.033043154 0.2569706 0.36348712 0.17224866
0001e0 e9 e1 e4 3d e4 9f 08 3f e9 ad b1 3f 49 c2 92 3f
       0.111759014 0.53368974 1.3881198 1.1465541
0001f0 be 9e 88 bd ec a0 89 3e 22 e9 2a 3e 45 15 0d bd
       -0.06670903 0.26880586 0.16690496 -0.034444112
000200 4a d9 0a 3e 4f 7d 77 3d d0 35 be 3d ad 87 99 3e
       0.13559452 0.060422238 0.09287608 0.29986325
000210 77 d5 1a bc 30 df e8 3e 4a e7 85 3c d4 5c 8c be
       -0.009450308 0.4548278 0.016345639 -0.27414572
000220 2b 7a cf 3d c1 cd ec 3e ee ae 43 3e d1 d5 1a 3e
       0.101307236 0.46250728 0.19109699 0.15120627
000230 14 43 8d bd c0 1e 39 bd d5 59 d9 3d 92 fa 7f bd
       -0.0689756 -0.04519534 0.10612837 -0.06249482
000240 f4 d4 bb 3e 82 4c 51 3e 13 f2 24 3f a6 6d 6d 3e
       0.36685908 0.20439342 0.64431876 0.23186359
000250 dd 36 85 3e 62 f9 98 3e ee ea bb 3e 2f 92 c7 bc
       0.2601842 0.29877764 0.36702675 -0.024361698
000260 23 3c 25 3e 5c 7f fb 3d 59 02 12 3f a1 dc 85 3e
       0.16136222 0.12280151 0.5703483 0.2614489
000270 e0 c5 ba bd 02 92 da 3e d0 76 95 3e e2 9c 2a 3e
       -0.09119773 0.4268952 0.2919221 0.16661409
000280 c5 f4 63 bf e9 b8 ee 3d 9d eb 6f be 6c 58 8c 3e
       -0.89045364 0.116563626 -0.23429723 0.2741121
000290 6f 60 71 3d 08 36 26 3f 63 37 b4 be 3c a8 ad 3e
       0.058929857 0.64926195 -0.35198507 0.33917415
0002a0 ed c0 57 3d 5b ba a1 bd 84 8c a0 3e d5 77 9f 3f
       0.052674223 -0.078968726 0.31357205 1.2458445
0002b0 ca 32 c9 3d 2d 07 f8 3e 7e 8c 10 3d c5 e3 92 3e
       0.0982414 0.48442975 0.035290234 0.286894
0002c0 55 85 29 3e 68 43 36 3f de 0a a9 3e 51 c1 b0 3d
       0.16554768 0.71196604 0.33016104 0.08630622
0002d0 ab af cc be b7 e6 15 3d c6 0f fd 3d ff 1e 08 3e
       -0.39977774 0.03659698 0.12356524 0.13293074
0002e0 41 02 31 bc af b7 3c 3e e4 2a 8d 3f df 19 0e 3f
       -0.01080376 0.18429445 1.1028714 0.55508226
0002f0 4b 9c 89 3e be d9 9b 3e ae 7e af 3f 9c f5 bb 3d
       0.26877055 0.30439562 1.3710535 0.09177706
000300 78 cb 36 3f fa c7 33 be eb 53 45 3d 70 48 f4 bd
       0.7140422 -0.17556754 0.048175734 -0.11927879
000310 9b b0 ae 3d 29 40 f9 3e 56 38 89 3f 10 41 74 3f
       0.085297786 0.48681763 1.0720317 0.9541178
000320 b3 af 35 bd f5 78 57 3c ba bb f6 3c f2 89 06 40
       -0.044357013 0.013151397 0.030118812 2.1021695
000330 5c cd 30 3e 39 57 be be 97 74 b9 3e 74 21 05 40
       0.17265838 -0.3717592 0.36221763 2.0801668
000340 29 c3 b0 be 97 2c 8e 3f bf 3f 2d 40 83 df 85 3e
       -0.34523895 1.1107358 2.7070158 0.26147088
000350 d9 32 78 3e cb 5e d0 3e a4 61 97 3d 4f af b0 3e
       0.24238147 0.4069732 0.0739167 0.3450875
000360 57 2e 84 3e cf e9 24 3f e6 df c8 3c 88 10 43 be
       0.25816604 0.64419264 0.024520826 -0.19049275
000370 e4 0e 77 3d 7e d2 1f 3f 0c 29 f1 3e 9f a3 52 3e
       0.060316935 0.6243056 0.4710163 0.20570229
000380 88 5a b5 be 52 52 89 3f 65 d5 be 3e 08 5a 96 3f
       -0.35420632 1.0728247 0.37272182 1.1746225
000390 c8 4f 87 3d 15 cc b6 3f 7e ab d2 be 08 95 70 3e
       0.06607014 1.4281031 -0.41146463 0.23494351
0003a0 63 11 60 3f 86 ba f8 3e 83 11 7c 3d 19 9d c3 3d
       0.8752653 0.48579806 0.061540138 0.095514484
0003b0 54 a9 56 3f 29 cb 4e be 4f bb d1 3f 37 75 a6 be
       0.83852124 -0.20194687 1.6385287 -0.32511303
0003c0 29 52 30 3f f4 8d ae 3e fb d6 12 3e 4a ef 51 3e
       0.68875366 0.34092677 0.14339821 0.20501438
0003d0 c6 2b 44 be ef fa 81 3f 97 69 0a 3e 95 5a 1e 3f
       -0.19157323 1.0154704 0.13516842 0.6185697
0003e0 e0 74 0b 3f b2 9f e0 3f 4e 89 9c 3e 36 c0 85 3f
       0.5447521 1.7548735 0.30573505 1.0449283
0003f0 3d 16 88 3e cf a5 8e 3f 27 f0 e1 3e 5b f1 4b 3f
       0.26579466 1.1144351 0.44128534 0.79665154

l1.bias f4 [8]
000000 dc 7e 2d 3f 1c b9 22 3f b1 17 1b 3f 6c 83 18 3f
       0.677717 0.63563704 0.60583025 0.59575534
000010 34 79 3f 3f 95 70 90 3f 52 bc 25 3f 65 1c 13 3f
       0.74794316 1.1284357 0.6474048 0.574652

l2.weight f4 [8, 8]
000000 51 ea 87 3f 45 59 84 bf d8 5d cc bd 3b a8 a0 be
       1.0618383 -1.0339743 -0.09978837 -0.3137835
000010 d5 34 da 3f a7 1c ad 3f 41 12 ed bf 0b a4 82 bf
       1.7047373 1.3524369 -1.8521196 -1.0206312
000020 5e 1c f9 3e 28 cc 17 bf 09 70 c0 3f 17 87 a5 3f
       0.48654455 -0.5929589 1.503419 1.2931851
000030 cb fc 47 3f a1 78 20 bf 65 cf f0 3e 6d 3e 3c bf
       0.78120106 -0.62684065 0.4703323 -0.73532754
000040 3f d9 7f 3f 02 5c bd 3f ae 50 1a 3e ae c0 5f bd
       0.99940866 1.4793704 0.1506984 -0.054627113
000050 13 ff 65 3f 88 15 7b 3f eb dc 4b bf bc e8 2d bf
       0.8984234 0.9807973 -0.7963397 -0.6793325
000060 16 18 a4 3f 5a 75 70 bc 3e e6 9f bf cf d8 da 3f
       1.281985 -0.014676416 -1.2492139 1.7097415
000070 ee 93 36 3f ac 0e fb be 11 90 6d be 49 a3 a0 3f
       0.7131947 -0.4903463 -0.23199488 1.2549831
000080 08 c4 b5 3f 54 0a 9d 3e e2 c0 8f 3f 76 cf ee be
       1.4200449 0.30671942 1.1230738 -0.46642655
000090 18 cd 33 3f 66 a3 0c bf 1f a9 04 40 a6 a0 cc bd
       0.70234823 -0.54936826 2.0728223 -0.09991579
0000a0 dd f4 1e bf 1e 1a bc 3f 29 89 25 3f 2a 10 68 3e
       -0.6209238 1.469547 0.64662415 0.22662416
0000b0 01 3d d1 3e ca c4 cc 3f 8a 20 88 be 65 98 bd 3f
       0.40866855 1.5997555 -0.26587325 1.4812132
0000c0 5d 1b 33 3f 09 de 89 bf a1 5c 4e bf c3 4f 2f bf
       0.6996363 -1.0770885 -0.8061009 -0.6848108
0000d0 16 01 7c bf 3d 2e 6f 3f 70 2d ea 3e c7 6c c5 3f
       -0.98439157 0.9342993 0.4573779 1.5423821
0000e0 7f cc 04 bf 39 4b bb 3f ab ea c3 3f 5c e9 15 be
       -0.51874536 1.4632331 1.530599 -0.14639801
0000f0 20 9f 9c 3e 02 e0 98 3f fe df 6f 3f c8 e5 d9 3f
       0.30590153 1.1943362 0.9370116 1.7023249

l2.bias f4 [8]
000000 e4 0d bc 3f 49 1a 5c 3f 5c 9d 8d be cf 11 80 3d
       1.4691739 0.8597761 -0.27659118 0.06253397
000010 f5 b4 23 bd a1 c3 20 bf de 97 83 3f 97 66 59 bf
       -0.039967496 -0.62798506 1.0280721 -0.84922165

l3.weight f4 [14, 8]
000000 79 d0 51 3f ec 9d 83 be 88 5c 4c 3d 50 df a5 bf
       0.8195873 -0.25706422 0.049892932 -1.2958775
000010 4f b3 05 bf db c1 bb 3e 0b f6 e3 bf c3 7f 3e 3d
       -0.5222673 0.36671337 -1.7809461 0.04650856
000020 06 77 89 3e 6f 97 a4 bd 26 c8 28 3f 95 71 30 3e
       0.2684862 -0.08036696 0.659304 0.17230828
000030 b6 63 1e 3d 1f 83 02 bf 22 54 fb bf 10 96 6d bd
       0.03866931 -0.50981325 -1.963505 -0.05800444
000040 ca ef 63 c0 3b 92 a8 3e 17 7c 8d bf 31 69 2d 3f
       -3.5615106 0.32924065 -1.1053494 0.67738634
000050 6c a0 02 c0 a9 5a 21 3f 2a b2 0b c0 5c c9 f7 3c
       -2.0410414 0.6302896 -2.1827493 0.030247383
000060 a1 02 8f c0 48 d3 ab 3e 6c 81 03 c0 4c 9b 75 bf
       -4.469071 0.33559632 -2.0547743 -0.9594009
000070 14 2c d8 3e f6 0f 95 3e fb 1b c3 c0 66 0b 1a 3f
       0.4222113 0.2911374 -6.0971656 0.6017364
000080 53 15 02 bd ab e0 00 c0 98 2c c2 bf 21 aa 95 3e
       -0.031758618 -2.0137126 -1.5169859 0.2923136
000090 0f ea 87 c0 e4 f3 28 3d 22 01 22 3e b0 0d 26 3c
       -4.2473216 0.041248217 0.15820745 0.010135099
0000a0 ee 02 1f 3f 4e 26 cc 3e 5b 7e 77 be 4c 32 9f bf
       0.62113845 0.39872974 -0.24169295 -1.2437224
0000b0 e5 b2 e9 3e 15 33 9b bf 7f d6 7e bf 16 39 a1 be
       0.45644298 -1.2124964 -0.99546045 -0.31488866
0000c0 b7 95 4c 3e be 63 ac bf b9 4e a1 bf 2a 77 ac 3f
       0.19978987 -1.3467939 -1.2602149 1.3473866
0000d0 45 af e2 bf 72 b6 66 c0 5b d4 00 40 ab a3 85 c0
       -1.7709738 -3.6048856 2.0129611 -4.176229
0000e0 fd 2d 3f 3e 89 c8 74 c0 23 d3 c3 3e 39 60 40 be
       0.18669887 -3.8247397 0.38247022 -0.18786706
0000f0 b3 9e d5 3d 49 3f 9d bf 4c 06 67 3e e8 ef 95 bf
       0.1043066 -1.2284938 0.22560996 -1.1713839
000100 28 e6 e5 3f 59 6d 3d bf ed 31 fd bc fe 5e 6d c0
       1.7960863 -0.73994976 -0.030907596 -3.7089229
000110 e1 54 67 c0 48 50 19 bf cb bf ec 3f b8 67 17 c0
       -3.6145556 -0.59888124 1.849603 -2.3657055
000120 69 a5 53 c0 41 71 c7 bf 8a 80 dc bf 3f 5c 1d 3f
       -3.3069708 -1.5581437 -1.7226727 0.6146888
000130 3f be 85 3d 09 c6 64 bf 06 3f 6d bf 3a 4e 39 bf
       0.06530427 -0.8936468 -0.9267429 -0.7238499
000140 28 b9 bc bf ce 07 1a bf 5a aa 0d bf de 92 fa 3f
       -1.4744005 -0.6016816 -0.5533806 1.957607
000150 64 e3 2d bf 17 29 63 c0 34 94 85 c0 e8 11 90 c0
       -0.67925096 -3.549383 -4.174341 -4.502186
000160 1d 12 87 c0 3c 02 aa 3f 23 25 64 c0 d5 05 32 3f
       -4.220961 1.3281932 -3.5647666 0.6954015
000170 e6 7d 86 bf 2d 78 34 c0 7b 91 60 c0 b1 18 2c bf
       -1.0507171 -2.819835 -3.5088794 -0.67225176
000180 e4 f6 89 c0 d1 04 7c bf 8f ac d4 3e 37 71 d4 bf
       -4.311388 -0.9844485 0.41537902 -1.659705
000190 9a c8 ce be a2 26 e0 3f 8d 53 42 c0 be c3 88 3f
       -0.40387422 1.751179 -3.0363495 1.0684736
0001a0 cf 4d 0d c0 cd ca 91 c0 c6 33 48 c0 a5 97 01 c0
       -2.207874 -4.556006 -3.12816 -2.0248806
0001b0 9c e7 7f be af 98 f3 be e8 0a 56 3f 0c da 22 3d
       -0.24990696 -0.47577426 0.8361039 0.039758727

l3.bias f4 [14]
000000 b6 bf da be 8b d6 c6 bb 06 5c 59 bf e0 87 28 bf
       -0.4272439 -0.006068056 -0.8490604 -0.6583233
000010 28 ad 76 be 21 5d d4 3e 31 77 88 3e b5 a4 a2 bf
       -0.24089491 0.41477302 0.26653436 -1.2706515
000020 33 88 79 3f 87 90 cb be a0 df 2d c0 2d 2a 2d 3f
       0.9747345 -0.39758703 -2.716774 0.6764248
000030 6d 01 02 3c 87 04 a2 3e
       0.00793491 0.3164408
